fashion_mnist_model_quantized.tflite (tflite, 102928 bytes, 10 tensors)

arith.constant f4 [32]
-0.0071718744 0.090515524 0.011781813 0.19473933 -0.12713091 0.0014717326 0.114393175 -0.12240471
-0.020488733 -0.0027376257 -0.011178943 -0.0037368196 -0.00072744 -0.0087248925 -0.05966888 -0.003699023
-0.08183407 0.00995484 -0.14982024 -0.02468832 0.06093894 0.019283017 0.088676296 -0.013292819
0.10613782 0.15196231 0.009179062 0.008259583 0.009518518 0.009802589 -0.06157429 -0.026635943
00000000: 0b02 ebbb 3460 b93d 8108 413c bf69 473e
00000010: 9b2e 02be 27e7 c03a f846 ea3d 52af fabd
00000020: fdd7 a7bc bd69 33bb e327 37bc 6ee5 74bb
00000030: acb1 3eba daf2 0ebc 5b67 74bd 4f6b 72bb
00000040: 9f98 a7bd a019 233c 7a6a 19be 293f cabc
00000050: 1c9b 793d 6bf7 9d3c eb9b b53d 20ca 59bc
00000060: c95e d93d 029c 1b3e c763 163c 3453 073c
00000070: 8ff3 1b3c 0a9b 203c 5335 7cbd 9f33 dabc

arith.constant1 f4 [32, 3, 3, 1]
-0.051644273 -0.2013488 -0.35001782 0.08695652 0.078042865 -0.11969823 0.15404847 0.15781698
0.14471093 -0.42796722 -1.4418038 -1.0954733 0.07125875 -0.22828025 -0.4094939 0.21504506
-0.06626954 -0.030967023 0.2305361 -0.10395707 0.008568442 0.21533401 -0.021943353 -0.14858136
0.12670887 -0.17868829 -0.098434515 -1.2202082 -1.0926068 -0.3698343 -1.3295519 -0.91882646
-0.0064179813 -0.22619522 -0.12346165 0.23063505 0.011098394 0.09647134 0.026546974 0.11706047
-0.015706727 0.056398723 -0.017638167 -0.0055756844 0.1003505 -0.19545372 0.17668562 0.16035493
-0.23016584 0.009993023 0.21082306 -0.122996345 -0.016629381 0.014534038 0.2280941 0.1837105
-0.07695165 0.09008081 -0.1896679 -0.6044336 -0.22932847 -1.3250246 -1.9042922 0.17083813
0.08618709 0.13245413 0.09698813 -0.01477173 -0.09575656 -0.15444098 -0.008860808 -0.11329584
0.0769972 0.13092037 -0.13139024 0.24860811 0.044982396 -0.26952708 0.09941713 0.075056225
-0.24817076 -0.2233963 -0.29744893 -0.10246704 -0.012399081 0.12643437 0.07399662 0.16537277
0.097272456 0.15628126 0.23165557 0.020337405 -0.24271299 0.0024876422 -0.0862666 0.066271625
-0.40564072 0.14829251 0.088383235 -0.04784036 0.14552677 -0.090065904 -0.15900625 0.23855098
-0.079241216 -0.18436205 0.27837226 -0.12572125 -0.12799622 -0.1558097 -0.27506033 -0.09388693
-0.10306876 0.08393174 0.17051789 0.29042655 0.1981426 0.1283768 -0.18666166 0.09000391
0.14600942 -0.31037784 0.17081319 0.2040693 -0.2341532 0.00096643274 -0.15795434 0.15424347
0.14711581 -0.052509733 -0.03630695 0.17340866 -0.19322276 -0.114433475 0.15837026 0.13855574
0.319993 0.1264693 0.16595577 -0.034723204 -0.09197155 -0.3066275 -0.26764452 -0.108899996
0.2212008 -0.24780197 -0.3654378 0.3078387 0.13821512 -0.31960437 0.0181131 0.34670308
-0.07640204 0.1951061 0.13282341 0.06340846 0.045546032 -0.087797135 0.069847204 -0.096117295
-0.22827442 -0.12267189 -0.16547088 0.14344248 0.077763 0.0015425986 0.044212144 0.03714315
-0.044093203 0.040539857 0.014153387 -0.07295524 0.23530662 -0.1857116 0.13833989 0.108102664
-0.22655547 0.126893 0.15599373 -0.24697535 0.022680065 -0.2521532 -1.1467749 0.03955015
0.029496387 -0.2730913 0.21406534 0.02696012 0.028175507 0.19075991 0.2827205 -0.050418206
-0.2531436 -0.14469023 -0.07094236 -0.20337623 -0.34699622 0.06047967 -0.00904437 -0.379186
-1.0611871 0.011410906 -0.068671785 -0.8951888 0.17070688 0.0262426 -0.2972591 0.19989285
0.08105085 -0.280083 0.054124918 -0.1439078 -0.07578539 -0.13095202 -0.16399816 -0.10862129
-0.18425804 -0.03400394 0.18727551 -0.8962468 -0.0018848594 0.027726071 -1.4591776 -0.3260431
0.10237672 0.05473707 -0.1516662 0.111357614 0.005259403 -0.15198863 -0.049124897 -0.23324469
-0.64648515 -0.16362002 0.028267564 -0.087076694 -0.24957153 0.29805145 -0.025434984 0.1059274
0.22974207 -0.10405946 -0.18021202 -0.17606808 0.14407289 0.06453526 -0.22403722 -0.067639425
0.2893033 -0.24870992 -0.0023273455 0.20193273 -0.12131234 -0.040662523 0.16920733 -0.15014315
00000000: f288 53bd 612e 4ebe 8935 b3be 4316 b23d
00000010: f0d4 9f3d 5824 f5bd e2be 1d3e c69a 213e
00000020: 1a2f 143e 851e dbbe 078d b8bf 7838 8cbf
00000030: 1cf0 913d 4cc2 69be 2fa9 d1be c634 5c3e
00000040: 53b8 87bd 8eae fdbc a811 6c3e 72e7 d4bd
00000050: a762 0c3c 8580 5c3e 8cc2 b3bc b625 18be
00000060: f8bf 013e 10fa 36be 0998 c9bd c82f 9cbf
00000070: 8ada 8bbf ec5a bdbe c22e aabf 3638 6bbf
00000080: ee4d d2bb b89f 67be 76d9 fcbd 982b 6c3e
00000090: 0ad6 353c c492 c53d 0a79 d93c 66bd ef3d
000000a0: 65ab 80bc 5902 673d eb7d 90bc 3bb4 b6bb
000000b0: 9084 cd3d 0525 48be 13ed 343e 1534 243e
000000c0: 98b0 6bbe c7b9 233c 00e2 573e 82e5 fbbd
000000d0: 573a 88bc 2c20 6e3c 8091 693e 9b1e 3c3e
000000e0: d498 9dbd 4a7c b83d 4d38 42be 29bc 1abf
000000f0: 15d5 6abe 689a a9bf d9bf f3bf 31f0 2e3e
00000100: db82 b03d 0ea2 073e b6a1 c63d 2005 72bc
00000110: 041c c4bd c725 1ebe ec2c 11bc a607 e8bd
00000120: b5b0 9d3d fd0f 063e 2a8b 06be 2093 7e3e
00000130: 763f 383d 74ff 89be 359b cb3d 14b7 993d
00000140: 7a20 7ebe 00c2 64be 3a4b 98be 3dda d1bd
00000150: 8425 4bbc 0378 013e 8a8b 973d 7b57 293e
00000160: c836 c73d 3208 203e 1e37 6d3e a19a a63c
00000170: c189 78be b607 233b 8bac b0bd 6bb9 873d
00000180: 24b0 cfbe fed9 173e 4502 b53d 41f4 43bd
00000190: f804 153e 7974 b8bd 89d2 22be b546 743e
000001a0: 3849 a2bd 68c9 3cbe cf86 8e3e 12bd 00be
000001b0: 7111 03be 948c 1fbe b5d4 8cbe ca47 c0bd
000001c0: b715 d3bd 67e4 ab3d 3e9c 2e3e cab2 943e
000001d0: e5e5 4a3e 3575 033e 3c24 3fbe f853 b83d
000001e0: 7e83 153e d8e9 9ebe a7e9 2e3e 8bf7 503e
000001f0: dbc5 6fbe 3458 7d3a c8be 21be 00f2 1d3e
00000200: 87a5 163e 7214 57bd 99b6 14bd 0a92 313e
00000210: 30dc 45be 195c eabd d02b 223e 8ee1 0d3e
00000220: 1fd6 a33e 2b81 013e 4ff0 293e eb39 0ebd
00000230: 945b bcbd 48fe 9cbe b408 89be f606 dfbd
00000240: 7682 623e cdbf 7dbe aa1a bbbe 099d 9d3e
00000250: 4488 0d3e 2fa3 a3be ed61 943c 1183 b13e
00000260: ac78 9cbd e5c9 473e dc02 083e 4bdc 813d
00000270: 7a8e 3a3d fcce b3bd 0d0c 8f3d 25d9 c4bd
00000280: c5c0 69be 663b fbbd 3371 29be 96e2 123e
00000290: 3542 9f3d 0531 ca3a cb17 353d 6a23 183d
000002a0: 139b 34bd 1f0d 263d 9ce3 673c 8f69 95bd
000002b0: 38f4 703e 2f2b 3ebe f9a8 0d3e ee64 dd3d
000002c0: 28fe 67be 3df0 013e d2bc 1f3e 1be7 7cbe
000002d0: 8bcb b93c 391a 81be 85c9 92bf 57ff 213d
000002e0: 68a2 f13c 9fd2 8bbe f233 5b3e 78db dc3c
000002f0: 52d0 e63c 9156 433e bec0 903e 5283 4ebd
00000300: 0a9c 81be ad29 14be 3a4a 91bd dc41 50be
00000310: 7da9 b1be 88b9 773d d62e 14bc ab24 c2be
00000320: fbd4 87bf cff4 3a3c cba3 8cbd 182b 65bf
00000330: c9cd 2e3e b9fa d63c 5832 98be b6b0 4c3e
00000340: fdfd a53d 0a67 8fbe 17b2 5d3d 915c 13be
00000350: 5f35 9bbd 4918 06be 22ef 27be d774 debd
00000360: 24ae 3cbe b747 0bbd 27c5 3f3e 6e70 65bf
00000370: 630d f7ba c921 e33c 55c6 babf 1fef a6be
00000380: e3aa d13d fa33 603d 624e 1bbe 760f e43d
00000390: 1257 ac3b e8a2 1bbe 3037 49bd b2d7 6ebe
000003a0: 0d80 25bf 028c 27be 6191 e73c 4455 b2bd
000003b0: ae8f 7fbe 339a 983e 075d d0bc 77f0 d83d
000003c0: 8141 6b3e 201d d5bd 8089 38be 314b 34be
000003d0: d887 133e 102b 843d 036a 65be 8a86 8abd
000003e0: 901f 943e d0ad 7ebe 6186 18bb 74c7 4e3e
000003f0: 9b72 f8bd bf8d 26bd b044 2d3e 20bf 19be

arith.constant3 f4 [10]
-0.06147735 -0.52487135 -0.027924946 0.23714958 0.11128808 -0.5945422 0.43170318 0.05152707
-0.089192405 -0.24826893
00000000: accf 7bbd f85d 06bf dbc2 e4bc 57d7 723e
00000010: 01eb e33d eb33 18bf 3308 dd3e 0d0e 533d
00000020: 82aa b6bd 363a 7ebe

arith.constant4 f4 [64]
-0.06491195 0.12392054 0.006190177 0.11216252 0.08487331 -0.006904985 0.050380833 0.21184345
0.2174945 -0.04347402 0.06350493 0.07849716 0.007384184 0.12247278 0.11678966 0.016159426
0.067004554 0.21718772 -0.030230481 0.21811882 0.11165046 0.019232357 0.08035031 0.065289326
0.05952054 0.06864006 -0.02745546 0.08287898 0.020313699 0.18511243 -0.026876051 0.05706376
-0.03683289 0.080604725 -0.006923438 0.027328614 4.1914136e-05 -0.108601116 0.15474893 0.13214332
0.09764611 0.11357492 -0.013079258 0.11680233 -0.0045282436 -0.017862197 0.16741425 0.16191036
0.166421 0.023754984 0.09567774 0.13645488 0.10679503 0.1451923 0.23416962 0.11033885
0.0364392 0.12986398 0.11001295 0.1392675 0.06388428 0.094356485 0.044466335 0.08479474
00000000: 8ef0 84bd 0dca fd3d f8d6 ca3b 77b5 e53d
00000010: 0fd2 ad3d 3643 e2bb 225c 4e3d 7ded 583e
00000020: e1b6 5e3e d011 32bd df0e 823d 1ec3 a03d
00000030: 06f7 f13b 02d3 fa3d 6b2f ef3d c660 843c
00000040: af39 893d 7566 5e3e eaa5 f7bc 8a5a 5f3e
00000050: ffa8 e43d 2d8d 9d3c b48e a43d 69b6 853d
00000060: cfcb 733d 2993 8c3d 46ea e0bc 74bc a93d
00000070: ea68 a63c 1d8e 3d3e 2a2b dcbc b0bb 693d
00000080: 16de 16bd 1714 a53d 02de e2bb 42e0 df3c
00000090: f6cc 2f38 436a debd 8176 1e3e 9450 073e
000000a0: affa c73d f899 e83d 624a 56bc 0f36 ef3d
000000b0: a961 94bb be53 92bc a46e 2b3e d4cb 253e
000000c0: 446a 2a3e d099 c23c b1f2 c33d d4ba 0b3e
000000d0: 5ab7 da3d 4aad 143e 29ca 6f3e 56f9 e13d
000000e0: 4541 153d 10fb 043e 784e e13d 249c 0e3e
000000f0: c3d5 823d f93d c13d 5522 363d dda8 ad3d

arith.constant5 f4 [10, 64]
-0.100728326 0.14357257 0.1263175 0.15218914 -0.29104847 -0.057715617 -0.27995214 -0.17846492
0.1326095 -0.3867966 -0.010308999 -0.02653759 0.06872599 0.23913364 -0.25358996 -0.3130613
-0.28259307 0.29937756 0.11253272 -0.14106855 -0.23453712 -0.39301896 0.0569263 -0.5566981
-0.032023445 0.1535784 -0.49834123 -0.39623207 -0.03434338 0.070949875 0.13575074 -0.13979253
0.09504398 0.21263435 0.08884388 -0.35975125 0.13768095 0.19478132 -0.14548135 -0.2389422
0.21944876 0.23129055 -0.11641166 -0.1295051 -0.15384147 0.02860865 0.22393814 -0.07153249
-0.0741853 0.09848751 -0.060818773 -0.22451328 0.23913875 -0.24800493 -0.28159836 -0.21446314
-0.28713 -0.22952476 -0.17914668 -0.4787388 -0.2541893 -0.23792505 0.20325208 0.23530284
-0.23099451 -0.4334354 -0.23776606 -0.22612846 -0.5190118 0.2592668 -0.35208163 -0.28277618
-0.11166819 -0.38395903 0.28423083 -0.32171726 0.16762237 -0.33715495 0.296654 -0.22670606
-0.60384786 0.10710755 -0.27110732 0.27406016 -0.46327788 0.14364995 -0.03530811 -0.6637831
-0.33349526 -0.5279759 -0.7013123 0.31048355 0.20499358 -0.2935577 -0.102261275 -0.97790384
0.21439663 0.25663182 -0.53233045 -0.15929006 -0.53928286 -0.52511793 0.18223411 0.16738653
-0.27066886 -0.1826193 -0.7465511 -0.21826561 0.31630936 -0.43300745 0.24271113 -0.61104006
0.30756903 0.14722534 -0.19594572 0.23093207 0.2956488 0.2144841 0.07042388 -0.36321568
0.32760134 -0.52662337 0.14290561 -0.27763188 -0.561536 0.1542604 -0.33628103 -0.10186221
0.28491595 0.15980354 0.18211544 0.19025913 0.12240684 0.07013648 -0.27311805 0.17552109
-0.3174039 0.18844455 -0.1822991 -0.48785892 -0.23593228 0.23706189 0.22990386 -0.5698
0.034293078 -0.06872669 0.09064669 -0.06549448 0.18214303 -0.16125356 0.05157276 -0.5811698
-0.66384435 0.1486089 -0.40986255 0.019536598 -0.14552854 -0.23052932 0.11993744 -0.48284003
0.08451446 -0.18885188 -0.3007875 -0.7224319 0.1491979 0.20784032 -0.41735783 0.022080531
-0.21019615 0.24535672 -0.46910152 -0.56881726 -0.15865284 -0.31336915 -0.06924103 -0.12949583
0.26772863 -0.5526476 0.28012338 -0.1856352 -0.2785263 0.14235558 -0.26120123 -0.13085906
-0.1295997 0.17447476 -0.2873468 -0.38373786 -0.5377059 -0.12084692 0.2397632 0.25007248
-0.033517122 -0.06610066 0.18487833 0.13637169 -0.7133229 -0.48372707 -0.32014042 0.1653195
0.16892922 -0.7588663 0.24538265 -0.43256006 -0.2795296 0.19892275 -0.5341663 -0.2818095
-0.54526615 0.2672945 0.073823236 0.28364736 -0.42271197 -0.30494592 0.10027348 -0.659984
-0.025344376 0.1370625 -0.25578427 0.18001093 -0.18385297 0.040046703 -0.15590522 -0.5384662
0.15185173 0.21265246 -0.30985844 0.008265091 0.0813785 -0.25518155 0.17565466 -0.37245968
0.033849344 0.19671285 -0.5988529 0.025067853 -0.21098855 -0.48721954 0.21432318 -0.1547839
0.19173345 0.13873209 -0.42963582 0.15747331 0.033452068 -0.33605754 0.17186604 0.17746596
-0.052720003 0.19804971 0.25238535 0.082808346 -0.5325525 0.13979463 -0.15913591 -0.078590386
00000000: a74a cebd b004 133e 6059 013e 78d7 1b3e
00000010: 4e04 95be 3667 6cbd e355 8fbe 82bf 36be
00000020: c9ca 073e 340a c6be 13e7 28bc 5c65 d9bc
00000030: 36c0 8c3d 73df 743e 8bd6 81be 9249 a0be
00000040: 0ab0 90be 0448 993e 8e77 e63d 4674 10be
00000050: 802a 70be c839 c9be 8d2b 693d c483 0ebf
00000060: 042b 03bd a843 1d3e 9526 ffbe eede cabe
00000070: a5ab 0cbd 2b4e 913d 3e02 0b3e c625 0fbe
00000080: 6ba6 c23d d2bc 593e c8f3 b53d 5131 b8be
00000090: 3cfc 0c3e c174 473e 10f9 14be 44ad 74be
000000a0: 2db7 603e 6ed7 6c3e 3d69 eebd fc9c 04be
000000b0: 9e88 1dbe b05c ea3c 0a50 653e a07f 92bd
000000c0: 76ee 97bd d2b3 c93d 1b1d 79bd cfe6 65be
000000d0: cae0 743e 01f5 7dbe a92d 90be 3a9c 5bbe
000000e0: b402 93be 8a08 6bbe 3a72 37be 411d f5be
000000f0: 1a25 82be a0a2 73be 5021 503e 3af3 703e
00000100: d389 6cbe 3feb ddbe f278 73be 388e 67be
00000110: f5dd 04bf 9ebe 843e 0b44 b4be 0ac8 90be
00000120: 4bb2 e4bd 4796 c4be b486 913e 20b8 a4be
00000130: 33a5 2b3e 939f acbe 08e3 973e a225 68be
00000140: c695 1abf 345b db3d 94ce 8abe 9d51 8c3e
00000150: c232 edbe f918 133e 3d9f 10bd b0ed 29bf
00000160: e4bf aabe 6e29 07bf 3489 33bf b3f7 9e3e
00000170: d6e9 513e 324d 96be 5c6e d1bd e857 7abf
00000180: ca8a 5b3e 3f65 833e cf46 08bf ef1c 23be
00000190: 710e 0abf 216e 06bf 949b 3a3e 6067 2b3e
000001a0: 1c95 8abe 8e00 3bbe f91d 3fbf 0581 5fbe
000001b0: 4df3 a13e 27b3 ddbe 4489 783e 1f6d 1cbf
000001c0: b079 9d3e 3dc2 163e ffa5 48be 7579 6c3e
000001d0: 485f 973e b8a1 5b3e 653a 903d 68f7 b9be
000001e0: 5dbb a73e cad0 06bf d955 123e c425 8ebe
000001f0: d3c0 0fbf 70f6 1d3e 072d acbe 229d d0bd
00000200: 81e0 913e 8aa3 233e 787c 3a3e 4ad3 423e
00000210: 70b0 fa3d b7a3 8f3d 21d6 8bbe cdbb 333e
00000220: c482 a2be 9cf7 403e 9eac 3abe a5c8 f9be
00000230: 3b98 71be 5ac0 723e eb6b 6b3e 6ade 11bf
00000240: e676 0c3d 94c0 8cbd f9a4 b93d f821 86bd
00000250: b483 3a3e a71f 25be f53d 533d 8bc7 14bf
00000260: b4f1 29bf ee2c 183e 81d9 d1be 370b a03c
00000270: 6f05 15be e10f 6cbe c3a1 f53d cf36 f7be
00000280: eb15 ad3d 6362 41be d200 9abe 4cf1 38bf
00000290: 56c7 183e 18d4 543e edaf d5be 3be2 b43c
000002a0: a93d 57be cb3e 7b3e 132e f0be 029e 11bf
000002b0: e475 22be ec71 a0be 3ece 8dbd 8e9a 04be
000002c0: ba13 893e 507a 0dbf 556c 8f3e 2717 3ebe
000002d0: 009b 8ebe a9c5 113e 2bbc 85be ebff 05be
000002e0: c9b5 04be 83a9 323e 1f1f 93be 4a79 c4be
000002f0: 18a7 09bf 977e f7bd 7c84 753e 8009 803e
00000300: 4049 09bd c85f 87bd bf50 3d3e 05a5 0b3e
00000310: 549c 36bf 13ab f7be 72e9 a3be 8449 293e
00000320: c8fb 2c3e 1045 42bf 9745 7b3e 8378 ddbe
00000330: 811e 8fbe 68b2 4b3e 1fbf 08bf 5649 90be
00000340: 9096 0bbf d3da 883e a330 973d 3a3a 913e
00000350: b46d d8be df21 9cbe 2f5c cd3d b6f4 28bf
00000360: 029f cfbc 1d5a 0c3e 28f6 82be c954 383e
00000370: f443 3cbe 0308 243d 9ea5 1fbe ecd8 09bf
00000380: 057f 1b3e 91c1 593e c4a5 9ebe 4e6a 073c
00000390: c5a9 a63d 28a7 82be d1de 333e 09b3 bebe
000003a0: 9ca5 0a3d 186f 493e 6c4e 19bf 195b cd3c
000003b0: 620d 58be d774 f9be 8977 5b3e ac7f 1ebe
000003c0: c655 443e c90f 0e3e 3af9 dbbe af40 213e
000003d0: 0905 093d bc0f acbe a7fd 2f3e a3b9 353e
000003e0: eef0 57bd 8bcd 4a3e a738 813e 6c97 a93d
000003f0: 5c55 08bf 5326 0f3e 86f4 22be fff3 a0bd

arith.constant6 f4 [64]
-0.014315265 -0.028200924 0.043791447 -0.10996261 0.018257847 -0.031347126 -0.039339017 -0.105571896
-0.12211101 0.14990382 0.15984003 0.13722178 -0.055651437 -0.05439482 0.07849064 0.01593753
-0.01006475 -0.06286205 -0.06981372 0.0027123075 -0.041370235 0.08055701 -0.050889544 0.16115549
-0.06891117 0.03868873 -0.012344643 -0.03712281 -0.06265608 -0.088901035 -0.11104833 0.013353622
0.10607774 -0.0060748034 -0.01807422 -0.022089899 0.11351087 -0.07283905 -0.062988445 -0.057056457
0.052026447 -0.07614401 0.19429834 -0.0666963 0.10561935 -0.0541457 -0.0500889 -0.07549735
0.13712706 0.007198649 -0.04956737 0.1466952 0.00089871464 -0.07205255 0.010995251 0.07293418
-0.04784839 0.09629295 -0.055959895 0.035338573 0.033701856 0.12879443 -0.051976107 0.004992934
00000000: 938a 6abc a005 e7bc a95e 333d 1434 e1bd
00000010: 7b91 953c d865 00bd f321 21bd 1436 d8bd
00000020: 5615 fabd 6380 193e 1bad 233e de83 0c3e
00000030: c3f2 63bd 1acd 5ebd b3bf a03d 6c8f 823c
00000040: 9fe6 24bc d2bd 80bd 7ffa 8ebd f8c0 313b
00000050: d673 29bd 13fb a43d 8e71 50bd f205 253e
00000060: 4d21 8dbd 1378 1e3d 2f41 4abc 160e 18bd
00000070: d551 80bd bf11 b6bd 4f6d e3bd 26c9 5a3c
00000080: 493f d93d 250f c7bb 6310 94bc e0f5 b4bc
00000090: 6378 e83d a42c 95bd 1600 81bd 08b4 69bd
000000a0: af19 553d 64f1 9bbd 25f6 463e 1298 88bd
000000b0: f54e d83d e2c7 5dbd 052a 4dbd 5b9e 9abd
000000c0: 096b 0c3e a5e2 eb3b 2807 4bbd 4437 163e
000000d0: b897 6b3a 4a90 93bd 6d25 343c 845e 953d
000000e0: acfc 43bd 3d35 c53d 3436 65bd 2ebf 103d
000000f0: f50a 0a3d b0e2 033e e6e4 54bd c49b a33b

arith.constant7 f4 [64]
-0.02422585 -0.0666415 -0.1678231 0.025634073 0.2326252 -0.001894872 0.05593573 0.014192338
-0.13633317 -0.13169894 -0.02603189 0.03271932 0.04525146 0.00993452 -0.092201784 0.058923088
0.068299316 -0.05037693 0.09522712 -0.004244136 -0.0133370785 0.061672464 0.11460044 -0.14530662
-0.14073205 0.31257734 0.08784845 -0.1260676 0.04188366 -0.021228017 -0.05163954 -0.0715781
-0.05136196 -0.10515 0.09029384 -0.042698562 -0.04486001 -0.13057743 -0.095093586 0.22717546
-0.11246673 -0.017827693 -0.087313086 -0.019330109 -0.030592844 0.044058044 -0.055070966 -0.18887058
-0.040418435 0.01681312 -0.07267801 0.01970977 -0.040588904 -0.09662331 0.03744759 -0.1531634
0.0557519 0.059717786 0.03491904 0.22447322 -0.028466722 0.03322196 0.022506885 0.00941881
00000000: 4a75 c6bc 577b 88bd d2d9 2bbe 8cfe d13c
00000010: 4d35 6e3e 5b5d f8ba dd1c 653d fb86 683c
00000020: ec9a 0bbe 16dc 06be d540 d5bc b204 063d
00000030: 9859 393d 66c4 223c 4ad4 bcbd 5659 713d
00000040: 83e0 8b3d 0a58 4ebd 7006 c33d 6512 8bbb
00000050: c383 5abc 449c 7c3d a3b3 ea3d 42cb 14be
00000060: 101c 10be 230a a03e e3e9 b33d dd17 01be
00000070: 338e 2b3d 61e6 adbc fb83 53bd 8a97 92bd
00000080: eb60 52bd e258 d7bd faeb b83d b0e4 2ebd
00000090: 21bf 37bd 17b6 05be 6dc0 c2bd afa0 683e
000000a0: f554 e6bd 620b 92bc 34d1 b2bd 2d5a 9ebc
000000b0: d89d fabc 3576 343d 1892 61bd 4a67 41be
000000c0: cd8d 25bd abbb 893c 35d8 94bd 6276 a13c
000000d0: 8d40 26bd 71e2 c5bd a562 193d ded6 1cbe
000000e0: 1b5c 643d a39a 743d 4407 0f3d 4fdc 653e
000000f0: 0b33 e9bc c013 083d 5c60 b83c 5a51 1a3c

tfl.pseudo_qconst i1 [64, 3, 3, 64]
-8 -31 7 -30 -34 25 22 -38
47 -34 42 9 11 59 -44 6
-17 -55 22 -51 -14 22 35 -6
-67 105 6 14 -51 -6 -12 0
24 -31 16 -41 -26 -12 -35 12
-24 -60 -2 -12 -33 -20 5 9
39 30 -39 2 0 -10 34 -34
4 33 47 70 -2 -24 12 29
-77 7 35 -12 0 -37 15 27
-31 -34 4 80 -20 -7 -5 28
20 -30 -28 -2 -25 -4 50 18
11 14 7 8 -7 3 11 -7
-9 -13 -5 -34 9 19 -2 28
-6 -28 -22 3 20 -14 -14 14
-26 22 7 -19 10 12 16 -25
-2 -4 -66 34 -5 26 -30 15
30 -78 19 -37 -78 22 -36 -37
37 2 -32 30 -2 -62 -23 53
-26 -37 -76 -23 19 -15 -89 34
28 -18 -127 6 -25 14 -1 -21
25 17 -97 10 18 3 5 -47
-8 -64 41 -5 -63 6 1 -5
-30 -36 -16 -40 -3 -12 -55 51
-38 -26 -59 -95 -11 20 -26 -13
2 -40 6 -2 -65 -6 -20 25
-8 24 27 -8 -5 53 6 -72
-30 3 -10 -4 8 27 -2 -39
-80 27 -19 -22 -31 -48 -15 11
10 8 -18 -12 -29 10 -64 14
14 -17 25 8 17 -40 0 -10
48 26 22 36 0 18 37 -3
-9 -7 0 -23 6 -5 15 -32
00000000: f8e1 07e2 de19 16da 2fde 2a09 0b3b d406
00000010: efc9 16cd f216 23fa bd69 060e cdfa f400
00000020: 18e1 10d7 e6f4 dd0c e8c4 fef4 dfec 0509
00000030: 271e d902 00f6 22de 0421 2f46 fee8 0c1d
00000040: b307 23f4 00db 0f1b e1de 0450 ecf9 fb1c
00000050: 14e2 e4fe e7fc 3212 0b0e 0708 f903 0bf9
00000060: f7f3 fbde 0913 fe1c fae4 ea03 14f2 f20e
00000070: e616 07ed 0a0c 10e7 fefc be22 fb1a e20f
00000080: 1eb2 13db b216 dcdb 2502 e01e fec2 e935
00000090: e6db b4e9 13f1 a722 1cee 8106 e70e ffeb
000000a0: 1911 9f0a 1203 05d1 f8c0 29fb c106 01fb
000000b0: e2dc f0d8 fdf4 c933 dae6 c5a1 f514 e6f3
000000c0: 02d8 06fe bffa ec19 f818 1bf8 fb35 06b8
000000d0: e203 f6fc 081b fed9 b01b edea e1d0 f10b
000000e0: 0a08 eef4 e30a c00e 0eef 1908 11d8 00f6
000000f0: 301a 1624 0012 25fd f7f9 00e9 06fb 0fe0

tfl.pseudo_qconst1 i1 [64, 3, 3, 32]
0 -28 5 -2 25 -22 20 13
13 9 -19 -18 -8 -19 -33 3
-3 16 -7 32 14 -23 -2 17
-46 -19 5 -39 -17 24 -4 -25
14 8 -16 1 25 11 -10 -11
-67 -8 -4 29 12 5 27 -9
32 6 0 -39 4 -15 5 -10
-4 6 -19 9 -20 41 21 -23
6 32 -10 0 4 -33 -22 -1
-14 7 -6 -15 7 -43 -48 -5
8 -11 -8 -4 -8 -59 -6 2
-32 -52 -10 -39 -35 -1 -4 -11
11 -10 18 -10 15 -79 37 -3
18 15 -45 -41 15 -33 -80 21
-45 23 -18 10 8 -22 5 -35
-5 11 26 -127 -124 10 -10 -53
-11 12 -16 18 20 4 -4 6
-95 19 -1 -5 2 16 15 19
47 10 1 -36 -23 15 -26 -17
12 25 -45 -4 -18 8 11 -25
-7 -1 -30 -35 22 -23 -107 -13
-19 10 -2 1 13 -28 -32 -9
-16 -17 -4 1 12 -37 1 -14
-19 -60 8 -23 -28 -16 4 2
2 37 13 32 -8 -98 95 -12
30 6 -24 -37 10 -30 -65 29
-76 22 -13 1 25 1 29 0
3 37 -3 -105 -92 35 -28 -50
-34 0 -43 32 22 33 -12 -14
-94 -13 36 -5 -10 13 36 -8
-9 -9 -26 -44 -39 -4 -12 0
81 23 -36 39 23 -14 -1 -1
00000000: 00e4 05fe 19ea 140d 0d09 edee f8ed df03
00000010: fd10 f920 0ee9 fe11 d2ed 05d9 ef18 fce7
00000020: 0e08 f001 190b f6f5 bdf8 fc1d 0c05 1bf7
00000030: 2006 00d9 04f1 05f6 fc06 ed09 ec29 15e9
00000040: 0620 f600 04df eaff f207 faf1 07d5 d0fb
00000050: 08f5 f8fc f8c5 fa02 e0cc f6d9 ddff fcf5
00000060: 0bf6 12f6 0fb1 25fd 120f d3d7 0fdf b015
00000070: d317 ee0a 08ea 05dd fb0b 1a81 840a f6cb
00000080: f50c f012 1404 fc06 a113 fffb 0210 0f13
00000090: 2f0a 01dc e90f e6ef 0c19 d3fc ee08 0be7
000000a0: f9ff e2dd 16e9 95f3 ed0a fe01 0de4 e0f7
000000b0: f0ef fc01 0cdb 01f2 edc4 08e9 e4f0 0402
000000c0: 0225 0d20 f89e 5ff4 1e06 e8db 0ae2 bf1d
000000d0: b416 f301 1901 1d00 0325 fd97 a423 e4ce
000000e0: de00 d520 1621 f4f2 a2f3 24fb f60d 24f8
000000f0: f7f7 e6d4 d9fc f400 5117 dc27 17f2 ffff

tfl.pseudo_qconst2 i1 [64, 576]
-63 -49 -17 -40 23 -35 -11 -19
-5 -28 37 53 16 -4 7 -6
-41 0 3 31 13 30 7 -3
20 -27 6 -10 27 15 -27 -14
-69 -36 -5 7 -13 33 46 -17
58 5 53 -5 -1 -6 -5 3
-41 -120 -26 -7 -30 11 17 30
50 -34 -11 106 2 2 2 38
-33 -47 42 -3 24 6 41 20
-5 -51 -30 -34 19 35 -43 -11
-77 27 13 28 -21 40 1 -35
7 -33 1 -5 73 37 62 -12
-7 -34 11 15 -49 36 2 -72
25 17 31 -29 -1 53 1 -8
-14 -37 -21 -52 -57 -31 17 10
-15 -1 4 82 -44 -14 18 34
10 -36 7 -20 48 -18 -1 8
19 -40 7 -23 37 72 -45 -23
-122 48 33 -80 -20 64 14 -29
50 10 29 26 33 -1 -12 -39
-4 -27 4 -104 15 41 -9 -33
-25 19 8 -12 2 45 10 -11
-33 11 22 -75 0 18 -31 7
-17 11 15 63 -13 35 7 53
-41 8 8 -11 -6 -46 8 -19
-25 12 17 21 1 8 -23 10
-30 -37 32 2 -17 -12 33 62
8 14 -4 -26 -8 18 -34 9
-38 -86 -14 -40 36 -14 -16 -37
21 -12 12 -30 47 -5 -18 14
-34 -21 -3 14 -40 -14 4 -54
3 -17 -4 100 -14 -25 9 3
00000000: c1cf efd8 17dd f5ed fbe4 2535 10fc 07fa
00000010: d700 031f 0d1e 07fd 14e5 06f6 1b0f e5f2
00000020: bbdc fb07 f321 2eef 3a05 35fb fffa fb03
00000030: d788 e6f9 e20b 111e 32de f56a 0202 0226
00000040: dfd1 2afd 1806 2914 fbcd e2de 1323 d5f5
00000050: b31b 0d1c eb28 01dd 07df 01fb 4925 3ef4
00000060: f9de 0b0f cf24 02b8 1911 1fe3 ff35 01f8
00000070: f2db ebcc c7e1 110a f1ff 0452 d4f2 1222
00000080: 0adc 07ec 30ee ff08 13d8 07e9 2548 d3e9
00000090: 8630 21b0 ec40 0ee3 320a 1d1a 21ff f4d9
000000a0: fce5 0498 0f29 f7df e713 08f4 022d 0af5
000000b0: df0b 16b5 0012 e107 ef0b 0f3f f323 0735
000000c0: d708 08f5 fad2 08ed e70c 1115 0108 e90a
000000d0: e2db 2002 eff4 213e 080e fce6 f812 de09
000000e0: daaa f2d8 24f2 f0db 15f4 0ce2 2ffb ee0e
000000f0: deeb fd0e d8f2 04ca 03ef fc64 f2e7 0903
